Layer (type)                    Output Shape         Param #     Connected to
==================================================================================================
X1 (InputLayer)                 (None, 64, 32)       0
__________________________________________________________________________________________________
embedded_X1 (InputLayer)        (None, 64, 256)      0
__________________________________________________________________________________________________
concatenate_1 (Concatenate)     (None, 64, 288)      0           X1[0][0]
                                                                 embedded_X1[0][0]
__________________________________________________________________________________________________
MainLSTM (LSTM)                 (None, 256)          558080      concatenate_1[0][0]
__________________________________________________________________________________________________
Log_probability (Dense)         (None, 82)           21074       MainLSTM[0][0]
__________________________________________________________________________________________________
Apply_temperature (Lambda)      (None, 82)           0           Log_probability[0][0]
__________________________________________________________________________________________________
Softmax_activation (Activation) (None, 82)           0           Apply_temperature[0][0]
==================================================================================================
Total params: 579,154
Trainable params: 579,154
Non-trainable params: 0
__________________________________________________________________________________________________
/home/ubuntu/Duyen/MusicImprov/scripts/xml_io.py:103: Music21DeprecationWarning: _getMidi was deprecated on May 2014 and will disappear at or after September 2017, v.5. use pitch.midi instead
…
